Path planning module/Experiments for Comparison/A_star/A_star_MLP (additional test)/mlp_model.pth (torch, 12711 bytes, 5 tensors)

fc1.weight f4 [64, 7]
00000000: 729c 863e e52c aabe 3116 163d 4e7d abbd
00000010: c602 863d 9be2 25bd 6c0b 473d 4929 973c
00000020: 0af9 f4bc 8b48 c93b 438e 493e 2420 4c3e
00000030: 1574 a9be 1065 26be caf3 353c 7d2e 8a3c
00000040: 9810 b5bb 7e47 f0bd 54ed 9d3e 243a b83e
00000050: 095d ae3e 14ad bd3e d623 003e 9071 963c
00000060: 8db4 3c3f 1df8 633f 7c1a ce3e eaa9 573f
00000070: 46cf b13e b726 ae3e 98ac b4bc 28d7 083f
00000080: b7fe 703f fb59 883f b353 2e3f 807c 9fbe
00000090: a1ba a9be 152a b33c 2978 503e 5a01 00be
000000a0: f5f6 b4be 3ac6 043e 59a4 eebc b721 3e3c
000000b0: d02d 21bb 0d81 3a3f e184 2e3f c5a2 143f
000000c0: f856 9d3c 3d77 73be 005b b8bb f7db 67be
000000d0: 0a17 633e 7abe 393e 6c55 93be 7330 813e
000000e0: dc7a 3fbe 694d 61be 6c21 8a3d ea61 e43d
000000f0: 8bb5 993d ef1d 043c 406d 3ebe 1f49 a23e
00000100: 36d5 9f3e 62a2 b7bc cbb6 853d ebbe 943e
00000110: 0415 85be 2e2f 1a3c 08ed 2d3e fa9a 87bd
00000120: a61b 913d 6aeb d73e 0328 e53e dfe7 e83e
00000130: e0c5 083f 6b68 2fbe 8d8b 653e c3a6 8a3e
00000140: ecd5 153f 6f9d 4e3f d5a5 ff3d 12d3 873e
00000150: be80 4b3e 4a9b 843e e62a 5a3c db5e 233f
00000160: e476 af3e 63d3 0b3f a425 493e aada b9be
00000170: 7eaa 08be b38c 9ebe f0e0 dfbc 750e 29be
00000180: f92c 8d3e 47ae 68be b790 61bd 9ff8 3c3d
00000190: 068e 223e 14b0 353f 4ee2 913e 3385 db3e
000001a0: 2934 183f 40fb 36bc 3ba0 0dbe 6b75 72be
000001b0: 078a 8c3e 80ed fa3c b2cd 693e 1d0b b4be
000001c0: b9d6 9dbe a0e0 96be f1e0 703e d2d2 1c3e
000001d0: 1a1d 8ebe 5bf3 5bbe 69be 14bd 44c1 16be
000001e0: d899 f03d ecea 793e bf2d 113e f565 8e3e
000001f0: d063 bf3d 5fbb 983c 9247 42bd c8b1 1f3c
00000200: 640e 353a aa5f 4bbd 9624 49bd 0f70 96bc
00000210: 2b54 1b3d b089 8cbc 9d6a c1be a04f 00bd
00000220: 7020 b9be 18ff 0cbd fe23 b4be 0e3e 183e
00000230: c041 cfbd db44 ddbe dd77 a23e a059 d93d
00000240: 2e1d 753e d098 853e 357e c9bd 21d5 6f3e
00000250: 4f7b a13e 1616 cbbd d60a 90bd 6778 233d
00000260: a2f9 c93e a44e d93c ab2d 14be 2ea8 90be
00000270: 87d1 2d3e ed0a c3bd 80a8 1dbd b9ee fb3d
00000280: d2a6 cfbe 2687 d53d 5d36 503e a1a6 323e
00000290: 9417 ebbd bd67 a13e f92d eb3e e865 f03e
000002a0: be01 563e d3e2 b6be 7378 a13e ed06 f03d
000002b0: 4f89 d43c d2d6 ed3e 1b81 a13d e887 353e
000002c0: 2761 2dbe 73a1 913e 3284 ea3c cb51 06bd
000002d0: 0e02 32bd cf32 d3bd 0276 693e 82a0 af3e
000002e0: 242c 6dbe 45fb b63c dcc3 9d3c 9103 a83d
000002f0: 32b3 c63e b69a b53e dde9 863c 4ad9 9b3e
00000300: 0411 b8bd 1362 b33d 2651 8a3e 777e 713e
00000310: b7a7 a03e a95f 0c3e c50f 063e d7fe 73bd
00000320: f3e4 133e 50ff 883c 2140 f23e ce21 2e3d
00000330: 98b8 283c 0565 3d3e e0d1 223e 7ad5 5b3e
00000340: 59d8 ec3e 475f e63e 5954 c43e 133a 913e
00000350: 1757 a4bc 5c92 2d3d aaca f43d 02c7 98be
00000360: 832d 6b3e 088b c7be 8a96 df3e bee4 64bd
00000370: 2a66 783e f317 003e adcb a53d c972 263e
00000380: f379 a43e dfeb 1ebe 2977 d53d 16a3 423d
00000390: c07e 283e 990d 023e ae85 cd3e 245e a43e
000003a0: 8834 bfbd b966 073e 064d 3a3e 4420 57be
000003b0: d597 6ebe d175 1ebe b4db b6bd 9609 9bbe
000003c0: f4a4 8ebe 48b4 413d 403e 9dbb 4255 053e
000003d0: 6711 73be 51ca 7dbe d39f 193e 3f45 913b
000003e0: 15b7 0c3f 129d f03e 77ec c33e 40fb 5b3d
000003f0: b3c8 18be e9b5 9a3e e6d4 173e d5e1 323e
0.26291233 -0.33237377 0.036642257 -0.08373509 0.06543498 -0.04049931 0.048594877 0.018452303
-0.029903907 0.006142681 0.19683175 0.19934136 -0.33096376 -0.1624949 0.011105487 0.01686787
-0.00552566 -0.11732386 0.3084513 0.35981858 0.34055355 0.3704611 0.1251367 0.018364698
0.73713 0.89050466 0.4025458 0.84243643 0.3472845 0.34013912 -0.022054955 0.534533
0.94138664 1.065246 0.68096465 -0.31149673 -0.331502 0.021870652 0.20358337 -0.12500516
-0.35344663 0.12966242 -0.029131101 0.011604718 -0.0024593957 0.72853166 0.6817151 0.58060867
0.019206509 -0.23775955 -0.0056260824 -0.22642504 0.22176757 0.18139067 -0.2877611 0.25232276
-0.18699211 -0.22002186 0.06744656 0.11151488 0.0750533 0.008063777 -0.18596363 0.31696412
0.31217355 -0.022416297 0.065290056 0.2905191 -0.25992596 0.009410663 0.16984951 -0.06621356
0.07085352 0.42171794 0.4475709 0.45489404 0.53426933 -0.17129676 0.22416516 0.27080354
0.58529544 0.80708975 0.12482802 0.2652822 0.1987333 0.25899726 0.013315892 0.6381661
0.34270394 0.54619426 0.19643265 -0.3629964 -0.13346288 -0.3096672 -0.027328938 -0.16509421
0.27573374 -0.22722732 -0.05506965 0.04613554 0.1587449 0.709718 0.2849297 0.4287506
0.5945459 -0.011168301 -0.13830654 -0.23677604 0.27449057 0.030630827 0.22832373 -0.3516473
-0.30827883 -0.2946825 0.23523308 0.15314797 -0.27756578 -0.21479551 -0.0363144 -0.14722162
0.11748093 0.24406022 0.14177607 0.27812162 0.093452096 0.018644033 -0.047431536 0.009746976
0.00069067464 -0.04965178 -0.049107157 -0.01836398 0.037922066 -0.017155498 -0.37776652 -0.031325936
-0.3615756 -0.034422964 -0.3518371 0.14867422 -0.10119963 -0.43216595 0.31732073 0.10612798
0.23936912 0.2609315 -0.09838525 0.23421146 0.3153939 -0.09916322 -0.07033317 0.039909746
0.39448267 0.026526757 -0.14470546 -0.2825331 0.1697446 -0.09523568 -0.038490772 0.12301392
-0.4055696 0.10426168 0.20333238 0.17446376 -0.114791065 0.3152446 0.45933512 0.46952748
0.20899102 -0.35719928 0.31537208 0.11720071 0.02594438 0.46452957 0.07885953 0.17727625
-0.16931592 0.28443488 0.028627489 -0.032792848 -0.04345899 -0.10312425 0.22798923 0.34302145
-0.2316137 0.022336612 0.019258432 0.08203805 0.3880859 0.35469598 0.016468937 0.30439216
-0.089876205 0.087589405 0.27015036 0.23583399 0.31377956 0.13708366 0.13091953 -0.059569206
0.14442806 0.016723305 0.4731455 0.042512707 0.010297917 0.18495567 0.15900373 0.21468154
0.4625881 0.44994566 0.38345602 0.2836462 -0.020061059 0.042375907 0.119527176 -0.2983933
0.2296658 -0.3897326 0.4366954 -0.055882208 0.24257722 0.12509136 0.08095489 0.16254725
0.3212429 -0.15519665 0.104231186 0.047518812 0.16454601 0.127005 0.40141052 0.32103074
-0.093361914 0.1322278 0.18193445 -0.21008402 -0.23300107 -0.15474631 -0.08928624 -0.3028075
-0.27860224 0.04729107 -0.0047986805 0.13020805 -0.23737107 -0.24784209 0.15002374 0.0044333036
0.5496686 0.46994835 0.38266346 0.053706408 -0.1492031 0.3021691 0.14827308 0.1746896

fc1.bias f4 [64]
00000000: 3b3a d73f d137 e23f 49ec 983f 2d14 49bf
00000010: c35a d8bf d45a e23e abd8 ca3f f332 c0be
00000020: c595 8c3f 6e9a b33f ea26 d6bf dee2 0ebf
00000030: 6530 32bf 0577 8dbe 2db6 84bf a027 a0be
00000040: d689 17bf c609 a6bc 71c7 0340 ce1a 80be
00000050: 319f 343e 3ed7 1cbe 26fa 833f 0b56 42bf
00000060: fb74 363f 6104 ca3e 93e4 96bf 6db4 e0be
00000070: c808 10be 40b5 aebf 953a b23f 9953 18bf
00000080: 97a1 293f 7732 3b3f be96 a8be aeec d03f
00000090: ac98 45bf 493a 0940 26a3 0c40 fdee 1c3f
000000a0: 4579 1d3f 4fec 983f 1635 a1bf 6d00 a83f
000000b0: 4602 823f d2b3 a9bf d281 273d eacc 583f
000000c0: 00a3 7f3d fc1f 823f 85cd cc3f d18b 5e3f
000000d0: 866e 1a3e 1939 2fbe cb69 4ebe 83ae 72bf
000000e0: a072 af3c b01a 9f3f 6b25 edbe e786 debf
000000f0: 9464 283d 0fa4 f23f 0004 6a3f 053f 573e
1.6814646 1.7673284 1.1947109 -0.7854641 -1.6902698 0.4420992 1.5847372 -0.3753887
1.0983206 1.4031503 -1.6730626 -0.5581492 -0.69605094 -0.27629867 -1.0368096 -0.3128023
-0.59194696 -0.020268332 2.059048 -0.2502045 0.17638852 -0.15316483 1.0310714 -0.7591254
0.7127225 0.39456466 -1.1788505 -0.43887654 -0.1406585 -1.3649063 1.3924128 -0.5950256
0.6626219 0.7312388 -0.32927507 1.6322229 -0.77186084 2.1441824 2.1974578 0.6130217
0.6151317 1.1947116 -1.2594326 1.312513 1.0156944 -1.3258002 0.04089529 0.84687674
0.06241131 1.0166011 1.600022 0.8693209 0.15081224 -0.17111625 -0.20157544 -0.94797534
0.021416962 1.2430019 -0.4631761 -1.7384919 0.041111544 1.8956317 0.91412354 0.21020134

fc2.weight f4 [32, 64]
00000000: b820 c73e d6cb 2b3e f3b7 f53e 1a4c 8d3d
00000010: 5e8d d5be c64f 953c f181 1e3f 44fe df3d
00000020: 0021 963e 0361 da3d 2a0f 92bc 6d17 65bd
00000030: e4e0 703c 343f 613d 6a79 37bb 2610 a33d
00000040: dc2f e33d 12f6 dcbd d4b3 ae3f 98b3 ca3d
00000050: 8635 c03c e6c2 36be b3b4 c0bb b3d0 1fbe
00000060: 2f72 b33d 4158 a23d 738e ca3d 33b1 0fbd
00000070: e89c 96bd 0325 dfbd a1d6 153e 7478 9fbe
00000080: 7baf c93d a2d0 ddbc 6a69 ecbd 72d5 a73d
00000090: 2a23 13be 566c 783f b88a de3d 63c8 7a3e
000000a0: dfd4 ba3d 54db 203e 0c7e 7c3d b958 e43e
000000b0: 9e08 5d3c 0934 0abc 36b0 703d 6298 dcbc
000000c0: 3e23 a23d d1cc 633e 6580 2a3f 7382 d1bd
000000d0: 10a0 373c d7bb d93c e0f4 bfbc c80c 87bd
000000e0: 3662 b43d 849c 193f c045 b93c b32f 49be
000000f0: 0456 bd3d fbcb 3e3f 245a ccbd e9b8 63bd
00000100: 61e9 9d3d 5038 58bc 660a 95bd 3c24 e4bc
00000110: 8500 0cbc 7398 b7bd 9068 75bd bc49 72bd
00000120: df89 e3bd 8e96 7e3d 6e41 30bd d90b 2ebd
00000130: 0775 c4bb 3808 1f3d 2410 263d 0623 a8bd
00000140: 7cb1 953d e90e 4a3c e40c 243d 56b8 853d
00000150: d424 90bd b97c 0f3d 16dc 13be e4ff 0d3d
00000160: 4854 7abb 733b dfbc 1b2a c5bd 5e2a c7bc
00000170: 0cb9 bdbd 5318 61bd d164 80bc 4b40 7abd
00000180: b897 feb9 095b 2a3b 085a 7c3d 7e41 a73d
00000190: 55ed 723d d23c adbc 7982 4cbd a6cb b6bd
000001a0: 9d7c b33d ce0b 05bd 604d 153d e137 02bd
000001b0: af21 cebd b5c0 b73d 2f66 bdbd 29bf e1bd
000001c0: b849 dbbd 7bc9 e0bd 144d 1f3b fe12 873c
000001d0: 5c51 1c3d b299 c03d 7257 c03d 6ce4 bdbd
000001e0: b4a0 efbd 160d e33d c1b6 a5bd 1581 3fbc
000001f0: e23c aa3d 0097 72bc 99d3 f6bd b993 103c
00000200: 4d22 973e 0da9 6f3e 37d5 a73e 32ff 4dbd
00000210: c6c2 7fbe c492 5e3e bb39 3a3f d4f5 c7bd
00000220: 9f79 453e 165c 013e a32d 50be fb9e b0bd
00000230: bc23 15be 7438 193d 67d7 453c f057 4cbd
00000240: 7b9f fb3c 5c88 afbd 8315 903f 42f0 a43d
00000250: a4bf da3c a867 03bd 7ae7 dabc 00f4 7f3d
00000260: db97 68bd 90e5 b53d e970 96bc 8323 8abd
00000270: e436 8bbd d856 f4bd 0b78 033e fc5c 31be
00000280: 4336 d53d d354 adbc de76 833d 4409 523e
00000290: 045b 89bd d769 633f 049c 363e 468e 6bbd
000002a0: 1b63 033d 1874 373e aab3 c9bc bfe6 c23e
000002b0: c8f1 a13d bf3d c1bc e18c fbbc 431b 063e
000002c0: 84bf ddbd 4fa0 8a3e 0c99 533f 5f38 a63d
000002d0: 4a3e a23d ec88 c03c c870 e33d ad5e c3bd
000002e0: dcd3 66bd b743 d93e 68a0 febd e342 7abd
000002f0: d16a 8cbc 2f12 3a3f 527d 30bd 553e 9f3d
00000300: e155 2f3d a02a d53d ca28 343c a913 b2bd
00000310: acc1 40bd 91d4 e63c 0398 8bbd 10b2 0ebc
00000320: 64d0 dc3d 6371 00bd e6d8 4b3c b779 1a3d
00000330: c6df 6e3d 38fb 5b3d 4b2f c83d f072 ecbc
00000340: 69e0 d73c 24ef c3b9 d667 dabd 4865 1dbd
00000350: 1c81 413c 9cd9 893d 402e a03d 8f20 a9bc
00000360: a5af 8fbd c3a7 c13c 2dd4 f9bd df80 793d
00000370: 7080 d23d 0de1 47bb 214d 68bd 7a56 723c
00000380: e052 08be a0f4 cdbd 209b cb3b 0d22 f8bd
00000390: cc3b 57bd 8fad 273a dc68 b83d 184a c8bd
000003a0: 620a 9dbd 30a7 c93c e56c 0ebe 5798 bcbc
000003b0: 57e1 93bb a412 d63c f9ae 8e3d 277d 77bd
000003c0: 1c53 023d dca0 cf3d 5693 d33a 6183 0dbc
000003d0: de9b e83d c582 6b3d a8ac a1bd f968 073c
000003e0: 90a3 7ebc 3704 db3d 49c3 50bd 9655 f7bd
000003f0: 2a61 9f3d b06d 8c3c 0bd2 b3bd 4928 9cbd
0.3889215 0.16776976 0.47991905 0.06899281 -0.41709417 0.018226516 0.61917025 0.10937169
0.29322052 0.10663035 -0.017829496 -0.055930544 0.014702056 0.054991916 -0.0027995952 0.079620644
0.11093113 -0.10789122 1.3648629 0.09897536 0.023463022 -0.17847785 -0.005880916 -0.15606956
0.08762013 0.07926989 0.09890451 -0.0350811 -0.07354146 -0.10895731 0.14632656 -0.31146586
0.09847923 -0.027077023 -0.11543544 0.08195008 -0.14368883 0.9704031 0.10866302 0.24490504
0.09122633 0.15708667 0.061643645 0.4459894 0.013490824 -0.008435258 0.058761798 -0.02692813
0.07916878 0.222461 0.66602165 -0.10229959 0.0112075955 0.026578827 -0.023432195 -0.06594235
0.08807795 0.6000445 0.022616267 -0.19647102 0.09244922 0.7453 -0.099781305 -0.055596266
0.07710529 -0.01319702 -0.07277374 -0.02784931 -0.008545046 -0.08964624 -0.05991417 -0.05915235
-0.11110281 0.0621553 -0.04303115 -0.042491768 -0.005995396 0.038826197 0.040542737 -0.08209805
0.07309243 0.012332656 0.040051356 0.065293 -0.070382744 0.035031054 -0.14439425 0.034667864
-0.0038197208 -0.027250027 -0.096271716 -0.024312194 -0.092638105 -0.054954838 -0.015673073 -0.06109647
-0.00048559695 0.0025994203 0.061609298 0.081667885 0.05930837 -0.021147165 -0.049929116 -0.089255616
0.087640025 -0.03248196 0.036450744 -0.03179157 -0.100650184 0.08972303 -0.092480056 -0.11022789
-0.1070742 -0.10975929 0.0024307417 0.016488548 0.038163528 0.09404315 0.09391679 -0.09272084
-0.117005736 0.1108648 -0.08091498 -0.01168849 0.08312394 -0.014806509 -0.12052078 0.008824282
0.29518357 0.23404332 0.32779858 -0.0502922 -0.24976644 0.21735674 0.7274434 -0.09763685
0.19284676 0.12632784 -0.20329909 -0.08624073 -0.14564413 0.037407354 0.012075282 -0.04988855
0.030715695 -0.0857093 1.1256565 0.08053638 0.02670271 -0.032081276 -0.026721705 0.062488556
-0.056785446 0.08881676 -0.018364387 -0.067450546 -0.06797579 -0.11930627 0.12838762 -0.17320627
0.1041074 -0.021158611 0.064191565 0.20511347 -0.06706813 0.88833374 0.17832953 -0.05750873
0.032076936 0.1791538 -0.024621803 0.3806667 0.07907444 -0.023589013 -0.030706825 0.13096337
-0.10827544 0.2707543 0.82655406 0.08116221 0.07922037 0.02350279 0.11105496 -0.09539542
-0.05635439 0.42434475 -0.12432939 -0.061098944 -0.017140778 0.72683996 -0.043088265 0.07775561
0.04280651 0.10408521 0.010996053 -0.08695156 -0.0470597 0.028177531 -0.06816103 -0.008709446
0.10781935 -0.031358134 0.012441849 0.037713733 0.058318876 0.053706378 0.097746454 -0.0288634
0.026352124 -0.00037371472 -0.106643364 -0.038426667 0.011810567 0.06730959 0.078213215 -0.020645408
-0.070159234 0.023639565 -0.121986724 0.060913917 0.10278404 -0.003049913 -0.05671418 0.014791125
-0.13312864 -0.10056424 0.0062135607 -0.1211587 -0.05254726 0.00063964067 0.09004375 -0.09779757
-0.07667996 0.024615854 -0.13908727 -0.02302186 -0.0045129466 0.026131935 0.06966967 -0.06042209
0.03181754 0.10138103 0.0016141932 -0.00863728 0.11357854 0.05749776 -0.0789426 0.0082647735
-0.015541926 0.10694163 -0.05096749 -0.12076871 0.077822044 0.017142147 -0.08780297 -0.07624871

fc2.bias f4 [32]
00000000: c6ac 663f 4084 c9bd 8377 3d3f 830b b93d
00000010: e03e 883f d600 e33e 81e4 1e3f 1d51 8c3f
00000020: 05da e0be e194 c43e 0c8d 5dbe 03df 0c3f
00000030: 2671 443f a49b febc dab8 e83e b139 943f
00000040: 26c1 e23c 850f 953f ea27 c8be 186c ea3c
00000050: 0c50 f63e 736f 933f de09 e83e cd35 803f
00000060: 384b 213f b28b d63e 9e1f ab3e 16ce c53d
00000070: 92e1 a43f 7b79 d3be aa12 183f 2e9e 963c
0.9010738 -0.09839678 0.74010485 0.09035399 1.0644188 0.44336575 0.6206742 1.0962254
-0.43916336 0.38394836 -0.21635836 0.5502779 0.7673515 -0.031080075 0.4545353 1.1580106
0.027679991 1.1645361 -0.39092952 0.028615996 0.48107946 1.1518387 0.45320028 1.0016419
0.630054 0.41903454 0.3342256 0.096584484 1.2881339 -0.4130362 0.5940348 0.018385973

fc3.weight f4 [1, 32]
00000000: 33c9 0b3e c05f eabd 1667 cb3e 3db2 b1bc
00000010: 82dc df3e e985 be3d e006 ed3d 038e 3a3f
00000020: a581 3ebe 9991 fd3d 4fd4 89bf ea44 753e
00000030: 524e a33d 6661 7cbe 6bb7 563e cde5 483e
00000040: 9472 1dbe 5b42 653f 56c2 9ebd ca0f e23d
00000050: 9cd9 533e dead 613f 1d1c 163e a10c 033f
00000060: eac6 df3d a04a cbbe 9914 4d3e 19bd e6bd
00000070: cb36 b43e 73f3 1cbe 0e03 283e b7df 083b
0.1365097 -0.11444044 0.39727086 -0.021691436 0.43722922 0.09302885 0.11573577 0.7287294
-0.18604143 0.12381286 -1.0767916 0.2395207 0.07973923 -0.2464653 0.20968406 0.19618912
-0.1537574 0.89554375 -0.077519104 0.11038168 0.2068848 0.88155925 0.14659162 0.51191145
0.10926612 -0.39705372 0.20027389 -0.11266536 0.35198054 -0.15327244 0.16407415 0.0020885298
