Path planning module/Experiments for Testing Generalization Ability/eval_net_params_DQN_x9522_y14992.pkl (torch, 18753 bytes, 10 tensors)

fc1.weight f4 [128, 9]
000000 83 50 e0 bd 19 c6 39 be 1f 0d c7 3d db 73 b5 bd
       -0.109528564 -0.18141975 0.097192995 -0.08859988
000010 45 3a 2a be ce 08 b9 bd 3c ee d2 3d a2 0c 53 3e
       -0.1662379 -0.090348825 0.10299346 0.20610288
000020 23 ea 73 3c a9 f1 86 bc 69 4d 3e be 9c ff a2 3d
       0.0148873655 -0.016472654 -0.18584217 0.0795891
000030 d6 3e 06 be dc 99 8e bd 77 98 a8 be 07 2d 75 bd
       -0.13109908 -0.0696294 -0.3292882 -0.059857395
000040 d5 43 74 be 9d 56 b0 bc e6 50 1c be 2b 4c 8a bd
       -0.23854001 -0.021525675 -0.15265235 -0.06752809
000050 dc ad fe ba e4 7a 2c be 7a bc 41 bd 73 51 84 bd
       -0.0019430476 -0.16843754 -0.047298886 -0.06460848
000060 3a 8b 31 be d2 7d 46 bd be f9 ec bd 65 25 cb 3e
       -0.17338267 -0.048459835 -0.11571072 0.39676967
000070 a2 d6 ee 3e fe ef 0c be ac bb 5a 3e 46 35 43 3e
       0.46648127 -0.13763425 0.21360654 0.19063291
000080 22 db 6c 40 52 11 34 3f ae 05 b4 41 14 1d a4 c1
       3.7008748 0.7033893 22.502773 -20.514198
000090 40 49 52 be 7e 94 22 bd 32 5b 4a be 3d 0b ea 3c
       -0.20535755 -0.039692394 -0.19761351 0.028569812
0000a0 c6 7e 67 3d 69 ef ba 3d 26 b7 c6 3d 8b 2c 34 3d
       0.056517385 0.09127695 0.097029015 0.043987792
0000b0 35 62 68 bd b1 bf 83 3e 30 f0 06 3f 16 26 a7 be
       -0.056734283 0.25732186 0.5271025 -0.32646245
0000c0 c8 7d ce 3e aa 87 22 3e 13 5a 86 40 9f 81 3a 3f
       0.40330338 0.15872064 4.1984954 0.72854036
0000d0 da 6b bf 41 03 b3 ab c1 6b cf 4c be 01 85 c6 bf
       23.927662 -21.462408 -0.20000999 -1.550934
0000e0 81 65 cc 3d 84 b7 fa 3e 53 88 ea 3e d1 e5 57 40
       0.09980298 0.48968136 0.45807132 3.3734019
0000f0 fa bd 08 40 1c ea 83 c1 ca 5a 2e be 9a 34 19 bc
       2.1365952 -16.489311 -0.17026821 -0.00935092
000100 79 16 80 3d 89 a6 1c be 1a dc 5a be 7c fe 79 bd
       0.06254286 -0.15297903 -0.21373025 -0.06103371
000110 5c f1 44 be e9 f7 1c 3d de 04 50 be 31 30 d6 3d
       -0.19232696 0.038322363 -0.20314357 0.104584105
000120 b2 31 09 3f 2a ba 27 3f ed f2 4b 3d 96 c2 ef 3e
       0.53591454 0.6551844 0.04979222 0.46828145
000130 a4 ab cd 3e 70 8a 90 40 db e3 4a 3f 11 cc c0 41
       0.40170014 4.516899 0.7925393 24.099642
000140 12 1f b3 c1 4c 47 59 bd 1d 46 44 be 63 c4 74 be
       -22.390171 -0.05304651 -0.19167371 -0.2390304
000150 19 e7 7c bd fc 13 05 3e cc 5f 47 3c b9 08 b0 bc
       -0.06174383 0.12995905 0.012168836 -0.021488534
000160 0e 72 95 3b 69 c8 16 3e 7d c1 ee bd 3f e1 0d be
       0.0045607155 0.14724888 -0.11657999 -0.13855456
000170 d3 32 c6 bd a3 62 4d 3b 4e b6 9d bd 75 28 15 3d
       -0.09677663 0.003133931 -0.077007875 0.036415536
000180 08 83 fb bc 5b a5 4f 3e 31 64 b3 bd 62 b8 00 3f
       -0.030702129 0.20277922 -0.08759344 0.50281346
000190 8b 98 07 bf 00 be 85 bf da 97 85 3e c3 0e 5e be
       -0.5296714 -1.0448608 0.26092416 -0.21685319
0001a0 6f 58 29 41 01 4d c6 40 44 86 db c1 78 18 ce 3f
       10.58409 6.1969 -27.44056 1.6101217
0001b0 c1 69 5a bd 9f c3 d2 bd d5 23 2d be be 14 1e bd
       -0.05332351 -0.10291218 -0.169082 -0.038594
0001c0 56 e7 46 3d 35 7a 63 be f7 5e cb bd 0b 79 a1 3e
       0.048560463 -0.22214587 -0.099302225 0.3153766
0001d0 08 99 b0 3e 60 13 2b 3f 35 b9 ac bd d8 0a 32 be
       0.34491754 0.6682644 -0.08433763 -0.17386949
0001e0 c7 3b b8 be f4 9e d4 be e2 ac 20 3f 79 f9 6c 40
       -0.35983106 -0.41527522 0.627638 3.7027266
0001f0 85 0b d5 c1 ba f8 bf 41 9a 9e e5 bd 2b 99 f6 bc
       -26.630625 23.996449 -0.112118915 -0.030102333
000200 45 16 5a be bb 65 f3 bd 0c 45 c1 bd 63 1c c0 3d
       -0.21297558 -0.11884638 -0.09436998 0.09380414
000210 4a bf 9f 3c ae d9 98 bb 4c 50 02 3d f5 b7 f6 3d
       0.019500393 -0.0046646213 0.03181486 0.12046806
000220 98 0e 85 bf b2 1c 3a bf ae d0 d5 3e 48 c7 14 3f
       -1.0395079 -0.72700036 0.41760772 0.5811658
000230 34 59 8b c0 16 5f 19 bf 7e 27 6d c1 54 ed f5 41
       -4.354639 -0.59910715 -14.822142 30.740883
000240 9a e3 d1 bd 18 f8 f0 bd 5e b6 14 bd 64 7c 73 bd
       -0.1024849 -0.1176607 -0.03630673 -0.0594448
000250 e3 ce 48 bd 70 72 4a 3e 2b aa 77 3d d0 a4 ac 3b
       -0.049025428 0.19770217 0.06046502 0.0052686706
000260 3a c2 0a 3d 2b 26 03 3d b1 30 ea bc 52 f7 ba bd
       0.033876635 0.03201882 -0.028587671 -0.09129204
000270 d7 36 b0 bd ed b7 94 3d 6f 8f 80 bd 53 c2 e8 3d
       -0.0860421 0.072616436 -0.06277358 0.113651894
000280 94 78 18 bf 6e eb e7 3e 3a 58 6b bd 76 7c ab bd
       -0.5955899 0.45296806 -0.057457186 -0.083733484
000290 f8 d2 77 bd e3 7e 20 bd a7 03 11 3e f1 d7 85 bd
       -0.06050393 -0.03918351 0.1416155 -0.06535328
0002a0 a5 a8 51 bd 8e 62 39 3e 40 4f 4b bf fa 9f d5 be
       -0.051186223 0.18104002 -0.794178 -0.41723615
0002b0 2f ef 56 be cd 0f eb 3e eb 48 6b be 63 02 62 be
       -0.20989679 0.45910493 -0.22977035 -0.22071223
0002c0 eb 89 01 bf 43 77 fc be c2 19 b7 3d f9 69 82 3d
       -0.5060107 -0.4930974 0.0894046 0.06367869
0002d0 46 33 81 b8 43 1e a9 3d 57 6f c0 3b ee 45 9a be
       -6.16075e-05 0.08257725 0.0058726477 -0.30131477
0002e0 56 4d 22 3e fa c4 88 bc 69 87 f9 3d 66 a6 38 3e
       0.15849814 -0.016695488 0.121840306 0.18032226
0002f0 79 e3 29 be 96 b5 a4 be 85 10 61 bf b7 52 96 bf
       -0.1659068 -0.3216979 -0.8791583 -1.1743993
000300 bf 8c 89 3e 67 d7 b0 3e d0 9b 37 c0 47 1d 9d bf
       0.26865193 0.3453934 -2.868885 -1.227456
000310 b5 16 da 40 b8 a6 03 c1 0e 1b 37 3f 7b 4e c4 3d
       6.815272 -8.228203 0.7152566 0.095852815
000320 4c 4b 95 be 09 94 f5 be 44 72 b0 be e1 f1 d3 3e
       -0.2915901 -0.47964504 -0.34462178 0.41395476
000330 23 b1 4c 40 50 0f ba c1 18 bc 8b 41 69 c8 87 3a
       3.1983116 -23.257477 17.466843 0.001035941
000340 41 cc 50 3d fc 18 68 bd d1 69 00 bd 7d 65 da bd
       0.05097604 -0.056664452 -0.031350914 -0.106638886
000350 e4 a9 2f bc 78 bb 60 3c c5 ba 04 be f8 26 6b be
       -0.010721657 0.013716571 -0.12961872 -0.22964084
000360 6b 7a c1 bc 6c 9c 5d 3c 5b df 11 be 50 45 59 3c
       -0.023617944 0.013526063 -0.1424536 0.013261154
000370 0b 9f 01 be 73 38 cd 3d 6e 61 b2 bd 93 62 14 bd
       -0.12658326 0.100205325 -0.087099895 -0.03622682
000380 db 0e 57 3d 01 a6 b1 3d 01 f6 d3 3e ee 1f 37 3f
       0.0525044 0.08674241 0.41398624 0.71533096
000390 9e a4 17 bf 7b 06 0a bf 90 3b 2a bf 5b 76 cf 3f
       -0.5923556 -0.5391614 -0.66497135 1.6207994
0003a0 2d fc aa c1 88 f7 19 41 5c 3f 21 3f 7a 1f 74 be
       -21.373133 9.622932 0.62987304 -0.23840132
0003b0 f2 69 2b bf 62 f0 b4 bd 20 fb 6b 3d 4b 1b a8 c0
       -0.66958535 -0.08834912 0.05761254 -5.2533317
0003c0 8c 1e 7d bf a9 41 46 c1 f4 93 d4 41 82 50 94 3e
       -0.98874736 -12.39103 26.572243 0.28967673
0003d0 a3 78 a7 3e 5c a7 99 be 38 26 ac 3e cd ca f9 3e
       0.32709226 -0.30010498 0.3362291 0.48787537
0003e0 70 f5 8a 40 41 6d 8f 3f 7b c6 be 41 2e 27 a1 c1
       4.3424606 1.1205217 23.846914 -20.14413
0003f0 ac 42 1b 3e 59 b2 d3 3e 03 96 37 be 4b 01 bd 3e
       0.15162152 0.41347006 -0.17928319 0.3691505

fc1.bias f4 [128]
000000 7f fc 98 be 30 5e 2d bd cf 3d 2a 3e f6 3b f3 3e
       -0.2988014 -0.042326152 0.1662514 0.47506684
000010 27 54 70 3e ab a8 8f 3e 9e 40 0b 3f e9 05 21 be
       0.23469602 0.2805837 0.54395473 -0.15724911
000020 6c 65 b7 3e e3 cf 4e 3e 38 bb 9a be 3c 69 85 bd
       0.35819566 0.2019649 -0.30220962 -0.065142125
000030 0b 0a a9 be 16 c0 62 be 00 bf 8e be c0 4b 4d 3e
       -0.33015475 -0.22143587 -0.27880096 0.20048428
000040 fb 14 b1 bc 3b af 3e 3e c5 6c 10 be fc 3b 83 3d
       -0.02161645 0.18621533 -0.14103992 0.064079255
000050 2b 47 ab be f9 41 ab 3e 75 1f 97 3c 01 31 be bd
       -0.33452734 0.3344877 0.018447617 -0.092866905
000060 d6 e3 bd be ee 18 05 bf 72 5e 8c bd 21 2b c8 3e
       -0.37087888 -0.51991165 -0.068539515 0.39095405
000070 8e 14 89 3e 30 f9 70 be 6f 17 a4 bd 6e d0 ee bd
       0.26773494 -0.23532557 -0.08012282 -0.116608486
000080 58 d0 3a 3e d8 a0 c0 3e 5d 3e 8b 3e e1 48 72 3e
       0.1824354 0.37622714 0.27196017 0.23660614
000090 2e 34 bb be 27 eb bf be b5 32 09 be 20 e3 d4 3e
       -0.36563247 -0.37484095 -0.1339825 0.41579533
0000a0 d5 05 a3 be 5a 7a eb 3d 3c 92 d2 be 77 89 e9 3c
       -0.31840387 0.11497946 -0.41127193 0.028507931
0000b0 48 f6 4a 3d 5e f1 c4 be 34 90 4d 3e a9 e6 56 3e
       0.04955128 -0.384654 0.2007454 0.20986427
0000c0 95 ca b8 be 4a 43 4a be 59 34 fa 3e f9 88 ab bd
       -0.36092058 -0.19752231 0.48868063 -0.08375735
0000d0 74 33 05 3d 47 79 9b 3e 2f 88 94 bc d3 a6 3a bd
       0.032519773 0.30365965 -0.018131344 -0.045569252
0000e0 31 7e 5a 3e df ab 91 3c 2d f8 00 3e e8 ba 39 be
       0.213372 0.01778215 0.12594672 -0.18137705
0000f0 b2 02 8e 3d 89 02 aa 3e b9 d3 ae be 42 ae ab 3c
       0.06934108 0.3320506 -0.34145907 0.020957116
000100 d6 8f 1b 3e c5 71 ee 3e 89 4b 7f 3e 4b 39 0b be
       0.15191588 0.46571174 0.24931158 -0.13596074
000110 f3 37 69 be 1a c4 61 3d 71 cf 5e 3e 1b fb 88 be
       -0.22775249 0.055118658 0.2175882 -0.26754078
000120 b8 95 b3 3e ba 6c e6 be 27 9c 40 bd 79 58 03 bf
       0.35075164 -0.45004827 -0.04702392 -0.51306874
000130 2c 2c a1 be a3 16 51 be 33 cf 29 3e 3a 5e 3f 3d
       -0.31479013 -0.20418791 0.16582946 0.04672072
000140 c0 51 19 be 24 a0 80 be 41 ea 68 3d f5 81 14 be
       -0.14972591 -0.25122178 0.056864027 -0.145027
000150 9e f2 51 3e c4 76 87 be 45 59 86 3e 0f 84 94 be
       0.20502707 -0.26457798 0.26239982 -0.29007003
000160 cf a0 1d be 98 f8 d8 3e 64 36 80 3e 85 39 6b 3e
       -0.15393375 0.42377162 0.25041497 0.2297116
000170 0a 6c ee bd d8 74 11 bf f6 27 b6 bd 6c 0a a2 3e
       -0.116417006 -0.56818914 -0.08894341 0.31648576
000180 de 8e 8e be af b8 15 3e 9d 32 2f be 2e 88 ef 3d
       -0.27843374 0.14621232 -0.17109151 0.11695896
000190 7d 79 bf 3e 24 94 8c be 13 2b ee be d7 2c b6 be
       0.37397376 -0.27456772 -0.46517238 -0.35581085
0001a0 1b 78 94 be 18 73 07 be 48 91 43 bd d8 c1 d3 3e
       -0.28997883 -0.13227499 -0.047745973 0.4135883
0001b0 17 7a 16 3f 4e 03 6a be 32 14 8a 3d 9c 5e ba bd
       0.58780044 -0.22852823 0.06742133 -0.091000766
0001c0 1d 11 98 3c 42 27 4a 3e 31 dd 1c 3f 52 45 aa be
       0.018562848 0.19741538 0.6127501 -0.33256012
0001d0 3c 34 b0 3c 87 fd 52 be 18 93 3b bd a7 de f4 3d
       0.021509282 -0.20604526 -0.045794576 0.1195653
0001e0 e6 2c 5d bd 5f cc 8f 3e fb e4 ff 3d 87 f2 86 be
       -0.053997897 0.2808561 0.124948464 -0.2635691
0001f0 65 6a a8 be 94 e5 ac 3d 06 5a 0f 3e 67 67 57 3c
       -0.32893673 0.08442226 0.13999185 0.013147212

out.weight f4 [5, 128]
000000 a9 b3 ba 3d e0 e4 35 bb ab dc 92 bd 60 29 52 3e
       0.09116299 -0.0027754828 -0.07170995 0.20523596
000010 0c 4f ba 3d fb bb 78 3e c9 a1 49 bf 46 19 aa 3d
       0.09097108 0.24290459 -0.7876249 0.08305602
000020 0a 95 e6 3e 17 12 e2 bc de fe 83 bc 6c d2 bc 3e
       0.45035583 -0.027596517 -0.016112741 0.3687929
000030 13 a9 5b bc 6b 58 71 bf 0f 95 82 bc 7a e7 e1 be
       -0.01340701 -0.9427554 -0.015940217 -0.44121915
000040 b7 54 b7 3d 0d b6 c2 3b 9e 09 b7 bc 04 9c cd 3e
       0.08951705 0.0059421123 -0.022343453 0.40158093
000050 62 6d b6 bd f2 b6 05 bf cb 1e d7 bf 44 cc dc bd
       -0.08907582 -0.5223228 -1.6806272 -0.10781148
000060 45 5b 4a 3d 9f 7a 1c c0 d5 a1 92 bf 88 39 10 3f
       0.049403448 -2.4449842 -1.1455637 0.56337786
000070 e1 84 d2 3e 5b 66 12 bf 7d 41 8c 3c c0 95 23 3d
       0.41117004 -0.5718743 0.017121071 0.039937735
000080 e0 34 41 bd 28 81 a8 3f 40 83 a6 3c 52 2f 7c 3d
       -0.047169566 1.3164415 0.020326257 0.061568566
000090 2f e4 15 3d 32 93 84 3c 0b 17 82 3c 41 b0 ce bf
       0.036594566 0.01618347 0.015880128 -1.6147538
0000a0 6f 91 0d 3e f7 64 95 3f a9 bb 86 3c 80 ef d0 3d
       0.1382501 1.1671437 0.016446905 0.10201931
0000b0 e2 d9 80 3d 96 64 9b bf bb 17 9f bd 37 df 25 3f
       0.06291558 -1.2140071 -0.07768198 0.64793724
0000c0 1f 4a 25 3f 6c 10 16 3f 86 1c 92 3e 0f 68 76 3f
       0.64566225 0.5861881 0.28537387 0.9625253
0000d0 b0 16 8f bd 10 5b 8d bf 0f e3 14 bd 9c 28 0e 3e
       -0.06986749 -1.1043415 -0.036349352 0.13882679
0000e0 8e 33 1e bd 21 93 28 be 2d 67 69 3b 2c 5f e3 3c
       -0.038623385 -0.16462375 0.0035614476 0.027755342
0000f0 75 13 33 3d 7c b0 c4 bf 8a a6 07 be 16 19 8c bd
       0.043719728 -1.5366359 -0.13247123 -0.06840722
000100 70 b1 1e 3d 2b ad e4 3e 84 6a 3f 3d bf 9e 8f bc
       0.038743436 0.44663367 0.04673244 -0.01753175
000110 43 37 41 bf bc 89 62 3e 2b 3d 36 bd 26 8b f1 3e
       -0.7547495 0.22122854 -0.044491928 0.47176474
000120 37 b0 5e bf b8 e4 17 3f 50 21 14 bc f3 04 ba 3e
       -0.8698763 0.5933337 -0.009041145 0.363319
000130 6d 02 15 3e 7a 0d 88 3f 90 5e 15 3f e2 b4 d2 3c
       0.14551707 1.0629113 0.58347416 0.025721017
000140 84 8d 0d bd 82 f8 84 3d f4 61 8d 3d 71 dc 89 bc
       -0.034558788 0.064927116 0.06903449 -0.016828747
000150 d3 fa cf bc 87 69 31 bc 29 05 dc 3e a3 bf 32 bd
       -0.025388157 -0.010828382 0.42972687 -0.04363979
000160 d2 3d 48 3e 4c 4a 15 3f 03 b9 a0 bd c5 fe de 3e
       0.19554833 0.58316493 -0.07847788 0.4355375
000170 08 73 d0 3d ab c7 c4 bf 59 12 16 3e 8a d6 0e bc
       0.101781905 -1.5373434 0.14655437 -0.008718142
000180 d5 14 f2 bd 87 51 80 bb a9 5d cd bc a9 66 80 bf
       -0.1182038 -0.003915969 -0.025069075 -1.0031329
000190 28 7c 47 bf ef d8 6f 3c e5 55 df bf f7 db 70 3e
       -0.7792382 0.014639123 -1.7448088 0.2352141
0001a0 49 a0 0d 3b 77 1d 8e bf 40 26 d9 3b 67 d0 be bf
       0.002161043 -1.1102742 0.006626874 -1.4907349
0001b0 cc b0 ce 3e 22 63 58 3d 06 1e 11 bc 4f ca 96 bd
       0.4036926 0.052828915 -0.008857256 -0.07362806
0001c0 b9 a8 04 be e9 e0 9b bc 72 60 f5 3e 08 b1 c9 3d
       -0.12954988 -0.019028144 0.47925144 0.09848219
0001d0 6d ff 41 3d 17 df eb bd 54 02 7e 3d 65 a7 0c 3d
       0.047362734 -0.115171604 0.06201394 0.034339327
0001e0 60 86 f2 3c 13 fd 32 3e 61 b0 e9 bc ff b8 58 bd
       0.02960509 0.17479353 -0.028526487 -0.0529108
0001f0 2b e5 8f 3d ca ba 9b 3d ca 4b ec 3c 98 e6 a7 3d
       0.07026132 0.076039866 0.028844733 0.08198279
000200 b4 06 10 3e 12 f7 c7 3a 96 4b a2 3d 0e 35 f6 3d
       0.14065057 0.0015256128 0.07924573 0.12021838
000210 75 49 80 3d 14 a6 3e 3e b8 7c fb bd 6c e7 0c be
       0.06264011 0.18618041 -0.122796476 -0.13760155
000220 71 58 87 3e bf f7 2c be d3 82 31 3d ea f5 1d 3c
       0.26434663 -0.16891383 0.043337654 0.00964115
000230 1d bb f7 bc 1a d9 b0 bf 4b 27 a1 bc 19 56 46 3e
       -0.03024059 -1.3816254 -0.019672057 0.19368781
000240 bf d9 32 3d 86 c5 99 bb be 0c f0 bb 09 75 b9 3e
       0.04366469 -0.004692736 -0.0073257377 0.36222103
000250 2b d2 ed 3c 54 c6 f1 3e 12 ed c5 bf 3d 3a 6b 3e
       0.02903088 0.47221625 -1.5462973 0.22971435
000260 f2 30 bb bc 53 9d dd bf e9 61 5f bf 9a ec 0d 3f
       -0.022850487 -1.7313637 -0.87258774 0.5543915
000270 21 6d fa 3e 40 d1 a6 bf 48 4b e6 3b 27 97 8b 3d
       0.48911384 -1.3032608 0.007028017 0.068159394
000280 bd 13 84 3c dc 43 9d 3f 6f 85 f2 bc 0d 7f 89 3d
       0.016122693 1.2286334 -0.029604642 0.06713686
000290 7b ce b7 3b ef c3 8e bc 25 ac a8 bc db 25 31 bf
       0.005609331 -0.017427413 -0.020589897 -0.6919839
0002a0 7b 65 eb 3d 56 a6 3a 3f 5a d3 a4 bc 43 23 0f be
       0.11493965 0.7291006 -0.020120312 -0.13978295
0002b0 4b 80 52 bd 64 fb 83 bf 0a ae e8 bd 30 98 1c 3f
       -0.05139188 -1.0311093 -0.1136132 0.6116972
0002c0 ae 07 de be 75 f3 07 3f ca c5 2a 3e 60 39 25 3f
       -0.43365234 0.5310586 0.16677013 0.6454067
0002d0 d2 41 f0 bc 44 0a 11 bf 18 0b 71 ba 44 a9 0c 3e
       -0.02932826 -0.5665629 -0.00091950735 0.13736445
0002e0 f4 62 91 bd e6 45 27 bf ad 55 ad 3d a2 b9 3d bd
       -0.07098952 -0.6534103 0.08463607 -0.04631961
0002f0 69 7e f7 3d 54 31 4b be 6e 81 6c bc 9c 13 05 be
       0.12084658 -0.19843036 -0.014435155 -0.12995762
000300 3f 66 2e bc 9b e4 1e 3e 0f 10 03 3c 96 28 35 3d
       -0.010644495 0.15516894 0.007999434 0.04422816
000310 d4 76 36 bf a6 33 f0 3c a9 86 00 be 56 33 98 be
       -0.7127507 0.029321503 -0.12551369 -0.29726666
000320 7d 7e 23 bf 12 dc 88 3f 7c 56 ff bb e7 9d c5 3e
       -0.6386488 1.069216 -0.007792292 0.38597032
000330 0f 6a 1a bd 65 4d af 3f 03 78 55 3f ef 0c e8 bb
       -0.0376988 1.3695494 0.8338625 -0.00708162
000340 28 d2 a7 3d 55 63 1b 3e 3b 57 32 bd c2 02 49 bd
       0.08194381 0.15174611 -0.04354022 -0.049074896
000350 ac 36 ae 3d 93 f3 03 be 58 78 0b 3e 8a 73 76 3d
       0.085065216 -0.12885885 0.13620126 0.06016878
000360 a5 1f 5c bd 1f ab 14 3f 0a 77 71 bd 1f 23 d8 3e
       -0.053741116 0.5807361 -0.058951415 0.42214295
000370 5c bd bf 3d f3 83 aa bf 15 f9 b4 3d 6e e8 c7 bc
       0.09362289 -1.3321518 0.08836571 -0.024402823
000380 f0 b9 af be 93 af 92 bd 74 e1 c2 bd 6f da 82 bf
       -0.34321547 -0.071623944 -0.09515658 -1.0222911
000390 7e bf 20 be bf 77 8d 3b d9 f0 f6 bf e0 ab 74 3d
       -0.15698048 0.0043172534 -1.9292251 0.059734225
0003a0 ae a2 82 3c 03 f7 6e bf fa 34 79 3c 1c 26 45 bf
       0.015946712 -0.9334566 0.0152103845 -0.77011275
0003b0 b0 12 42 3e 1a 86 48 3d 32 fd 8f 3c f7 44 55 3c
       0.18952441 0.048956014 0.017576788 0.013016931
0003c0 dd d2 19 bd d5 64 4b 3d f4 31 47 3e b0 6b b9 3d
       -0.03755461 0.049656708 0.1945265 0.09053743
0003d0 07 b1 24 3d 6e f9 14 be 25 d1 d2 3c 20 06 92 3d
       0.04020789 -0.14548275 0.025734494 0.071300745
0003e0 d1 7f 67 3d 05 30 aa 3d b9 55 e3 bc 65 1c 1c 3d
       0.05651838 0.0830994 -0.027750837 0.038113017
0003f0 1c d8 99 3d e4 d4 82 bd 3e 6a e3 bc 57 33 12 3d
       0.07511923 -0.06388262 -0.027760621 0.035693493

out.bias f4 [5]
000000 13 98 a0 3e d6 1f 9a 3e bd 7d 0b 3f be 9d d2 3e
       0.31366023 0.30102414 0.54488736 0.41135973
000010 29 62 aa 3e
       0.33278015

fc2.weight f4 [128, 5]
000000 8c 07 bf bd ff 67 58 3d bf b5 0f be ff 58 89 bd
       -0.09327611 0.052833553 -0.14034174 -0.06706428
000010 7a ff 6b bd 8d 2f 1e 3d bf 95 ea 3c b7 49 8e bc
       -0.05761669 0.038619567 0.028635858 -0.017369134
000020 1b a0 1c be 3b e8 01 3d 8b 2a a2 be ca bc 32 3d
       -0.1529545 0.031715613 -0.31673083 0.043637075
000030 96 81 0d bc ff ce 8d bc f2 de 4d be dd 49 ee 3d
       -0.008636853 -0.017310617 -0.20104578 0.11635182
000040 a6 dc 84 3d f3 a8 6c 3d 53 67 53 bd 0b 5b c7 3c
       0.06487398 0.05777831 -0.05161221 0.024335405
000050 b0 40 59 bd 8d 2d 09 bd 53 2e c3 bb 47 ab 6f bd
       -0.053040206 -0.033490706 -0.00595645 -0.058512952
000060 99 67 c0 bd ca 3b e1 bd 3c b7 00 be 7f b2 c7 bc
       -0.0939476 -0.10997732 -0.12569898 -0.024377106
000070 f8 56 98 bd a0 0c 59 bd 87 9d d4 bc 38 96 d1 bd
       -0.07438463 -0.052990556 -0.025954021 -0.1023373
000080 25 ea de 3d 26 6f b7 bc 9d f8 00 3e 7b 0c f7 3d
       0.10884503 -0.022391867 0.12594838 0.12062927
000090 ad 5d a4 bd 05 36 1b 3e 3b 5c 55 bd 13 12 dc bd
       -0.0802568 0.15157326 -0.05208991 -0.10745635
0000a0 ba 1a 98 bd e3 5b 32 3c 20 c7 57 bc 55 a9 15 bd
       -0.07426973 0.010886165 -0.013170034 -0.03653844
0000b0 b2 9d ce 3c f0 23 8d bd 5d 1f a1 bd f8 b7 50 3e
       0.02522168 -0.0689162 -0.0786731 0.20382679
0000c0 44 ff 26 3e ef c9 23 be 5b 3f d8 bd f4 f4 42 3e
       0.16308314 -0.15995 -0.10558959 0.19038755
0000d0 eb 7b da bd ca 14 e6 3c ed f0 92 bd 3b ba 96 3d
       -0.10668167 0.028086085 -0.07174859 0.073597394
0000e0 82 f9 8b bc 69 20 9d bd e6 a2 30 bd e3 cf b0 3d
       -0.017086748 -0.07672197 -0.043124102 0.08633401
0000f0 b8 60 26 3e 65 fa 95 3d 3a 34 74 3d 4f ae f8 bd
       0.16247833 0.073231496 0.05962012 -0.12142622
000100 c3 3e eb bd 2b 07 44 bd 4b e2 a4 3a e4 76 0e 3e
       -0.1148658 -0.0478584 0.0012579648 0.1391254
000110 7c 49 c0 3d 9f a2 38 bc 1b 61 86 bd b8 57 e1 3d
       0.09389016 -0.011269241 -0.0656149 0.11003059
000120 0e b8 0b be 78 b7 f8 3a 4b 65 99 bc 4c 30 b5 3d
       -0.1364443 0.0018975576 -0.018725058 0.088471025
000130 56 ab 92 3c f8 71 2c 3c fd 12 cc 3d 7d 41 fe bd
       0.017903965 0.010525219 0.09964559 -0.12414835
000140 b7 af 01 3e bc 33 aa bc 73 06 9e bb 15 cc 8a 3d
       0.12664686 -0.020776622 -0.004822546 0.06777207
000150 f3 2e b6 bd 9f b0 73 3d 2d 42 ea bd ff 49 22 3e
       -0.088956736 0.05949461 -0.11438403 0.1584854
000160 7a c0 53 3e 3b 0e f4 bd c9 35 4b bb 77 24 c3 bd
       0.20678893 -0.11916777 -0.00310074 -0.095284395
000170 6b cb 5c 3d 77 61 7a bd 28 c0 b0 bd e2 e3 4e bc
       0.053904932 -0.061128106 -0.08630401 -0.012627574
000180 8e a6 0a be f6 a4 9f bd a9 51 b5 bd 1b 1d 89 3c
       -0.13540098 -0.07795136 -0.08853466 0.016737511
000190 58 ce 0c bc 87 60 2a 3c c7 38 ec 3d 31 be 15 3e
       -0.008594118 0.0103989905 0.11534267 0.14623334
0001a0 c4 28 04 3d 2b ea 37 bc 7c 44 48 be d0 6e bf 3c
       0.03226544 -0.011225264 -0.19557375 0.02336827
0001b0 65 a6 f4 bc 3a 0d b4 3d ef ac 1f 3d 4c de 1c be
       -0.0298645 0.08791585 0.03898328 -0.15319175
0001c0 38 2e 0c bb 15 cd 9d bd 5c 18 b0 bb 62 0a e9 3c
       -0.0021389853 -0.07705132 -0.0053739976 0.028447334
0001d0 53 ea f2 bd fb 64 e1 bd 47 63 a6 bd 9d 23 79 bc
       -0.118611 -0.110055886 -0.081244044 -0.015206245
0001e0 55 16 10 3e 7a 07 d0 3c c7 3b e5 3d f3 ac 47 3c
       0.14071019 0.02539419 0.11193042 0.01218723
0001f0 3b fa ec 3c ba 44 e6 bd 45 79 8e 3d 2a 4a f5 bd
       0.028927913 -0.11243577 0.06956724 -0.11977036
000200 41 f0 8e be 2b fc 32 3d 58 87 6e 3d bb 03 58 be
       -0.27917674 0.043697517 0.058234543 -0.21095173
000210 89 7a 0f 3e 0f 89 8f bb 92 b9 83 be 18 a9 9c bc
       0.14011587 -0.0043803523 -0.25727516 -0.019123599
000220 ca de 8d bd 82 22 e7 3d 1f 5a 36 bd f2 0b d4 bd
       -0.06927259 0.11285879 -0.04451954 -0.10353841
000230 33 59 54 bd 57 f8 da bd c7 9c ec bd 5f 2e 51 3e
       -0.05184288 -0.10691898 -0.115533404 0.20427845
000240 20 63 f7 bd 82 b9 e9 3c fd ac 77 bd 82 89 54 bc
       -0.120794535 0.02853084 -0.06046771 -0.012972238
000250 fa 80 20 3e ff 4e 07 3d b3 3d 89 bd af 9e 80 3d
       0.156742 0.03303432 -0.06701221 0.062802665
000260 bb c6 4b bd 29 7d 20 bd 7d b2 ce bd 27 ac 49 be
       -0.04975007 -0.039181862 -0.10092638 -0.19694577
000270 9f fe e5 bc 17 57 a2 bd cb c1 92 3d 2b 73 61 bd
       -0.028075514 -0.07926767 0.07165869 -0.055041473
000280 fb 01 e0 bc 8f 48 56 bd ae 4a 14 3d b5 56 9b bd
       -0.027344694 -0.05231529 0.036204033 -0.075848974
000290 fe 15 3e 3e f7 88 4c 3d 94 e3 0d 3d 0f f5 d0 bd
       0.18563077 0.049935307 0.034640864 -0.10202991
0002a0 90 67 f9 3d e5 51 bf bd ab e5 55 3d f3 59 07 bd
       0.12177956 -0.09341792 0.05222098 -0.033044767
0002b0 ad 91 05 3e ff 07 b5 3d aa 1b 52 3e 26 84 c8 3d
       0.13043852 0.08839416 0.20518366 0.0979083
0002c0 9b 86 b6 3d e5 1c 68 3a 16 ce b2 bd 23 c6 fa bd
       0.08912393 0.0008854403 -0.08730714 -0.12244823
0002d0 05 77 f0 3c 01 0c 0d 3e 05 9e 41 3d c9 24 a4 bd
       0.029353628 0.1377411 0.04726984 -0.08014829
0002e0 7b 85 1b be a0 c6 4e 3d eb 0e e6 bd 8b 41 50 3d
       -0.15187638 0.050482392 -0.11233314 0.050843757
0002f0 c0 05 5d bd 6e 28 2e 3d 47 c2 0f bd bf 28 2d bc
       -0.05396056 0.042519026 -0.035097387 -0.010568797
000300 ed 45 a4 3d 38 7d 3b 3d bd 38 d0 bd 7b 70 dc bd
       0.0802115 0.045773715 -0.10167072 -0.107636414
000310 84 f2 3f bb f1 05 3d bd 25 06 ab 3d 23 23 3c bd
       -0.0029288838 -0.046148244 0.08350781 -0.045931946
000320 b9 16 18 3e 21 49 b4 3d 78 9b 19 bd 26 fe c8 bd
       0.14852418 0.08803011 -0.037501782 -0.098141
000330 34 66 b0 bd 6d 99 4e bd 95 d5 97 bc 27 c6 69 bc
       -0.08613244 -0.050439287 -0.018534461 -0.014268435
000340 15 8c 07 3c 7b 4b 9c bd 49 e3 90 bd cf d4 08 3e
       0.008273144 -0.07631584 -0.07074601 0.1336243
000350 df d6 5f 3e e3 5d cc 3c 67 06 90 3d 8a 1f 0e 3d
       0.2185931 0.024947112 0.07032471 0.034698047
000360 8f 57 6a bd 22 43 e2 3b bb f3 91 3d 37 db b8 ba
       -0.05721241 0.0069049755 0.07126566 -0.0014103417
000370 02 9f 62 39 25 59 84 3e 71 ba 95 bc 68 80 b4 3d
       0.00021612275 0.25849262 -0.018277379 0.08813554
000380 5f cf 27 bd d6 00 ad bd 1d 49 8a bd 3c 2e 3c 3e
       -0.04096925 -0.08447425 -0.067522265 0.18377012
000390 3f 53 04 3e 25 83 eb bd 4a 37 8b bd c4 ad 24 be
       0.12922381 -0.11499623 -0.06797655 -0.16081911
0003a0 9c d8 2b 3d 24 ab c8 3d e7 0e 87 3d 4b 1f 23 bd
       0.04195462 0.097982675 0.06594639 -0.039824765
0003b0 7a af 33 3d 47 34 15 bd e6 6a 18 bd f2 14 e2 3c
       0.04386852 -0.03642681 -0.03721132 0.027597878
0003c0 41 d8 9f 3d 9c 17 04 bc 47 95 4a bc cb 7c fa ba
       0.07804919 -0.00806227 -0.012364692 -0.0019110678
0003d0 19 4a b8 3c 9e f4 9e 3c 75 4d 7c bd fe 33 0a bd
       0.02249627 0.019403752 -0.061597306 -0.03374099
0003e0 7a 40 96 3d 3a f5 c1 bd 58 b9 2e bd 03 4f 08 be
       0.07336517 -0.094706014 -0.042657226 -0.1331139
0003f0 56 fe 41 3d ef 26 89 be 79 a7 44 3e 49 3d 03 3e
       0.047361694 -0.26787516 0.19204511 0.12816347

fc2.bias f4 [128]
000000 81 a6 a5 be 80 7d 02 be ec fb a7 bd 0a 25 33 be
       -0.32353595 -0.12743187 -0.08202347 -0.17494598
000010 d9 f1 6f be ac 89 a2 3e 8c 53 ab 3e 3c f6 ba 3e
       -0.23432101 0.3174566 0.3346218 0.36515987
000020 fe 54 16 be d0 c6 35 3e b8 9e a8 3d d0 e7 ed bd
       -0.1468086 0.17751622 0.08233398 -0.1161648
000030 14 9d cb 3e be e8 dc 3e 34 d0 09 3e b0 00 50 3e
       0.3976828 0.43146318 0.1345833 0.20312762
000040 9c e3 a7 be 64 e0 6e 3e 00 cf c3 3e 54 78 94 be
       -0.3279084 0.23327786 0.38243866 -0.28998053
000050 c2 db c7 3e b0 04 bf bc 38 75 cc 3e f6 b4 82 be
       0.3903485 -0.023317665 0.3993318 -0.25528687
000060 68 89 95 be b4 55 88 3e ff d1 76 be e8 d7 bb 3d
       -0.29206395 0.26627886 -0.24103545 0.0917204
000070 5c 25 b5 3e 64 7f 29 be a4 f7 2d 3e 5c ad c8 be
       0.35380065 -0.16552502 0.16988999 -0.39194763
000080 ac e3 c3 be 84 8f 02 be 24 20 89 be 1e 63 a1 be
       -0.38259637 -0.1275006 -0.26782334 -0.31520933
000090 bc 24 a5 3e 44 82 06 3e ff ae c0 be 0e b3 75 be
       0.3225459 0.1313563 -0.3763351 -0.23994085
0000a0 18 e0 ed 3d 94 84 ad be b2 2f b5 be 08 c2 db 3d
       0.11615008 -0.33890212 -0.3538795 0.10730368
0000b0 76 90 91 3e a0 b6 7f 3d 78 e9 3d be e8 58 16 3e
       0.28430527 0.062430024 -0.18546093 0.14682353
0000c0 5a 47 a4 be 08 05 97 bd 28 12 d4 3e 40 12 d9 3d
       -0.32085687 -0.073740065 0.41420102 0.10599184
0000d0 c0 d6 96 3e 6e 45 6c be 84 8d c2 3e ea 2a 9f be
       0.29460716 -0.2307336 0.37998593 -0.31087428
0000e0 f2 3e 88 be d0 4c 93 3d a8 26 23 3e 17 37 8d be
       -0.26610523 0.07192385 0.15932715 -0.27581093
0000f0 f0 08 f5 3d 30 2c 53 bd 0e bf 35 be cc 9c 99 be
       0.11964595 -0.051555812 -0.17748663 -0.3000244
000100 68 84 19 3d c2 56 d3 3e 1c 6c 7e 3e da de 40 be
       0.037479788 0.41277128 0.24845928 -0.18835011
000110 90 34 96 bc 54 b5 98 be da eb 6d be 68 de 4a bd
       -0.01833561 -0.29825842 -0.23234501 -0.04952851
000120 00 69 fa ba 20 cf 6b 3c 68 51 fb 3d 5c 7c d9 3e
       -0.0019104779 0.014392644 0.122713864 0.4247769
000130 64 09 4b 3e 98 2c 01 be 06 46 0d be 4c 99 ca be
       0.19827801 -0.12614667 -0.13796243 -0.3957008
000140 54 69 d7 be 28 73 2d bd 96 3a b6 3e fc ae bb be
       -0.42072546 -0.04234615 0.35591573 -0.3665694
000150 4c a8 0c 3e 56 22 a3 be d0 93 08 3e e0 36 4a 3d
       0.13736075 -0.31862134 0.13337636 0.04936874
000160 90 3e a4 bc b4 fe 35 3e c0 89 0e 3e 36 16 bb 3e
       -0.020049363 0.17772943 0.13919735 0.36540383
000170 82 87 be 3e 20 95 5f 3d 80 62 41 3b 9c 95 8e 3e
       0.3721276 0.054585576 0.0029508173 0.27848518
000180 2a 51 2b be 30 33 16 bd ff ae dc be 32 71 8c 3e
       -0.1673018 -0.03666991 -0.4310226 0.2743011
000190 d0 61 37 3e f0 ab 25 be 40 f9 69 3d a6 e2 0f be
       0.17908406 -0.1617887 0.05712247 -0.14051303
0001a0 70 6c 86 bc e0 d2 f0 bd 5e e6 ce 3e 80 f5 e8 bd
       -0.016409129 -0.11758971 0.4041013 -0.113749504
0001b0 30 bd 96 3e e0 2f 68 3c 46 b0 d4 be b0 b6 96 3d
       0.29441214 0.014171571 -0.41540736 0.073590636
0001c0 76 15 c4 be 04 b9 cb be 58 8f e0 3e c8 af 00 be
       -0.38297623 -0.39789593 0.43859363 -0.12567055
0001d0 8c 2d 03 be 7c b1 c9 be c6 fc 82 3e a8 55 44 bd
       -0.12810344 -0.39393222 0.25583476 -0.04793325
0001e0 c8 bb 33 3e 40 7a 1d 3d 98 56 ee 3d dc e2 ba bd
       0.17552102 0.038446665 0.1163761 -0.09125301
0001f0 c0 6d 2c bc 4e d3 9c be 70 04 fb 3d c4 13 98 3e
       -0.010524213 -0.30629963 0.12256706 0.2970258

out2.weight f4 [1, 128]
000000 95 83 dd bd d9 58 47 3d ac 6c 0a bd 65 fe 76 3e
       -0.10816113 0.048668716 -0.033795044 0.24120481
000010 01 c8 16 be a2 d4 3b be ad e2 67 3b da 21 db 3c
       -0.14724733 -0.18342832 0.0035382912 0.02674954
000020 64 6d ab 3d 17 63 60 3d 04 62 97 bc e2 b2 bb bb
       0.08370474 0.054782 -0.018479355 -0.0057281116
000030 93 b8 8a 3d f6 8f 96 3d 1f c2 f7 3d 92 e6 03 3e
       0.06773486 0.07351677 0.120975725 0.12880924
000040 12 cf 90 bd ea ff 54 3b cf 81 46 bd 97 1b 8b bc
       -0.070707455 0.003250117 -0.04846364 -0.01698093
000050 c5 48 e4 bd 7d 48 68 bd f0 94 0e be 58 54 e7 3c
       -0.11146692 -0.056709755 -0.13924003 0.02823846
000060 e6 75 2a 3d 5f 1e 41 3d 33 00 bf 3c df 8e a6 3d
       0.041616343 0.047148105 0.023315525 0.08132719
000070 79 a9 16 3d f2 70 70 be 0a 8c 90 3d 8b bf 46 3c
       0.036782715 -0.23480585 0.0705796 0.012130628
000080 6f 77 19 3d d8 92 ea bd 49 86 83 bd 3d 2a 37 bc
       0.037467416 -0.114537895 -0.06422097 -0.011179504
000090 8d 90 fa 3c 83 0e 7f 3d d7 71 10 bd 92 7b d9 3d
       0.030586505 0.0622697 -0.035264816 0.10619272
0000a0 22 28 70 bc 0a bf 24 bd 0e 77 97 bd 83 dc 50 3c
       -0.014658006 -0.04022125 -0.07395755 0.012747887
0000b0 05 6b 06 3e 8a a9 05 be 5b d1 7d 3d 1b b5 2d 3e
       0.13126762 -0.13052955 0.061967235 0.16963618
0000c0 cf 9a 93 bd 50 98 56 3d 2b b5 79 bd 2d 08 81 3d
       -0.07207262 0.05239135 -0.06096379 0.063003875
0000d0 3f e0 d6 3c 0a df 8d 3d cb 75 74 3d 44 8f b8 bd
       0.026229976 0.06927307 0.05968265 -0.09011701
0000e0 af d5 0e be e3 40 b2 3d e8 32 7f 3d bf ce 44 3d
       -0.13948701 0.087037824 0.062304407 0.04804873
0000f0 b2 08 75 3c a5 c5 57 bd 4f ed c1 bd a3 ef 98 3a
       0.014955686 -0.052678723 -0.09469091 0.0011668097
000100 b4 11 ac bc b2 79 0f 3e 37 1f 4f 3d 20 bf 17 be
       -0.021004535 0.14011267 0.05056688 -0.14819002
000110 25 70 d0 3d 7b 6e aa bd 18 d1 10 3d 51 d0 01 be
       0.1017764 -0.08321854 0.035355657 -0.12677123
000120 a0 c6 52 bd 4a 34 81 bc 4f b8 00 3e ab 50 5a bc
       -0.051458955 -0.015772004 0.12570308 -0.013324897
000130 31 2a 20 bc 9f 92 90 be 3a 1a 54 3d bc 15 cc bd
       -0.009775684 -0.28236863 0.051782824 -0.09965083
000140 e4 8f 91 3a a0 8b 03 be fe 49 a2 3d eb 80 0a 3e
       0.0011105505 -0.12846231 0.07924269 0.13525741
000150 f9 ee 04 3d 7c a1 24 bc 17 1f 07 3d 7a e0 75 bc
       0.032454465 -0.0100482665 0.032988634 -0.015007133
000160 88 2c 6e bd 28 ea 60 3d 5d 77 57 3e 1f 6e 45 3d
       -0.058147937 0.05491081 0.21041627 0.048200723
000170 1f c3 df 3d 63 2c 19 bc 73 12 a3 bd 83 ed 03 bd
       0.10925888 -0.0093489615 -0.07962503 -0.03220893
000180 92 6c 84 3b a6 67 2e bd 35 2b 80 bd c7 71 e2 bd
       0.004041263 -0.042579316 -0.06258241 -0.110568576
000190 f2 da 8b bd af 36 ee 3c a8 e2 43 3c f3 22 c9 3b
       -0.0682887 0.02907881 0.0119558945 0.0061381995
0001a0 c3 eb a0 bd 50 b2 73 3d b8 f2 6b bc b2 d1 ed 3d
       -0.07857468 0.059496224 -0.01440113 0.11612262
0001b0 1f dc 1a 3e 10 e9 1c bb 28 57 f4 bd 2e a1 3a bd
       0.15123032 -0.0023942627 -0.11930686 -0.04556387
0001c0 73 a6 5b 3d 15 ed b6 3c c3 8e 55 bd 17 c7 26 3c
       0.053625535 0.022329846 -0.0521381 0.010179303
0001d0 44 51 30 bc b4 71 25 3d 3b 8b dd 3b 47 24 40 bd
       -0.010761563 0.04039164 0.0067609823 -0.046909597
0001e0 cf 3c c0 3d 5d 4e 4f bd b7 c6 cf bd e0 9c 1e ba
       0.09386598 -0.050611842 -0.10145324 -0.0006050598
0001f0 88 03 93 bc 10 d6 06 bd de 42 ab bd ad 5d c9 bc
       -0.01794602 -0.03291899 -0.08362363 -0.0245808

fc3.weight f4 [128, 4]
000000 1d a3 5b be d5 72 06 bd bc 67 89 bd 58 10 99 3d
       -0.21448942 -0.032824356 -0.06709239 0.074738204
000010 27 4c f0 bb 5c 75 2a be 4e 86 02 3e 70 69 e3 3d
       -0.007333297 -0.16646332 0.12746546 0.11104095
000020 2a 14 24 3e ab 72 80 bd 23 ac a1 3c 50 c6 dc 3d
       0.16023317 -0.06271871 0.019735401 0.107800126
000030 86 28 19 3e 37 ef 96 3b b3 d5 86 3d 23 82 af 3c
       0.14956865 0.0046061534 0.06583729 0.021424359
000040 a2 6f 4a be 95 8d fa bd 23 36 78 bd 0b 78 32 bd
       -0.19769147 -0.12234036 -0.060598504 -0.043571513
000050 73 0a d9 3d 9c bb 40 3e 38 02 f2 bd 47 6d 5b 3c
       0.10597696 0.18821567 -0.118168294 0.013392753
000060 24 47 8a bd 69 72 8e bd bb ed b5 3d b8 a6 53 3e
       -0.0675185 -0.06955416 0.08883234 0.20669067
000070 e2 27 b0 3d 5c c4 a0 bc 6a ba 99 3d ab 8e 3d 3d
       0.08601357 -0.019624881 0.07506259 0.046278637
000080 b8 53 52 3d 82 19 25 3c 1f 08 e9 3b e3 1d 83 3d
       0.05134937 0.010076882 0.007111564 0.06402185
000090 f8 2d 53 bd 28 d2 39 be 21 48 c6 3d a8 0f ea 3d
       -0.05155751 -0.18146574 0.09681726 0.114287674
0000a0 a4 dd 22 bc 29 39 25 be d5 65 dd bd 48 67 20 bd
       -0.009940539 -0.16135086 -0.108104385 -0.039160997
0000b0 13 e7 d3 3c e1 01 12 3e 99 86 b2 3d 60 f2 f8 3d
       0.02586702 0.14258529 0.08717079 0.12155604
0000c0 5f 49 67 3e 50 c1 f4 bd 7a 42 fb bc 8f a1 09 be
       0.22586583 -0.11950934 -0.030671347 -0.13440536
0000d0 a9 14 1e be cf 4b 44 3e 7d d4 dd bd 8f 06 a4 3d
       -0.15437569 0.19169544 -0.108315445 0.080090635
0000e0 93 44 f1 bd 18 a9 4e bd 6b e6 14 3e 83 93 89 be
       -0.117806576 -0.05045423 0.14541022 -0.26870355
0000f0 c0 6a 21 bd d4 5c 1d 3d 82 a0 fe 3b c9 58 31 3d
       -0.039408445 0.038418606 0.007770599 0.043297563
000100 cc cd 0a 3c af 54 12 3e 12 09 f9 3d aa ff 5d 3d
       0.008471917 0.14290117 0.12159933 0.0541989
000110 2d 65 16 be 8d 75 f6 bd c3 90 0d be 04 80 a5 3c
       -0.14687033 -0.1203414 -0.13824753 0.020202644
000120 3f 1b 85 be bd 1a de bb a7 a1 8f 3d a7 c0 56 bd
       -0.2599735 -0.00677809 0.070132546 -0.05242982
000130 2b e2 eb 3d ba a0 d1 3d 52 bc 95 3d 6f 3a c4 bd
       0.115177475 0.10235734 0.0731131 -0.09581458
000140 2f 12 2e 3e 23 2c ee 3c fd 03 ee 3d 8d 2f 78 3c
       0.16999124 0.02907378 0.116218545 0.015148056
000150 1c 72 c3 bd b7 99 e8 bd 9b 98 0a be 6e cb 34 3d
       -0.09543249 -0.11357444 -0.13534777 0.04413932
000160 63 2f 08 3c 06 88 05 bc 5d 4c 24 3e 30 c6 84 3c
       0.008312079 -0.008150106 0.16044755 0.016207784
000170 c6 c2 88 be ef 49 c9 bd e7 a4 0b bd 70 8f 46 bc
       -0.267111 -0.09828555 -0.03409281 -0.012119159
000180 50 1c 0d be 23 e1 9e 3d d3 7d 96 3c 40 3c 49 3d
       -0.13780332 0.07757785 0.018370545 0.049129725
000190 7f 91 93 3d 1d 0b 22 3e 42 8c 27 3d a1 5a ad bd
       0.072054856 0.15824552 0.040905245 -0.08464552
0001a0 7e 5e 01 bd 76 9b 0a bd 6d 69 a1 bc 67 78 33 3e
       -0.031584255 -0.033839665 -0.019703591 0.17526399
0001b0 ef 96 05 be b1 db 8c 3d 55 13 e9 bd f0 86 02 3d
       -0.13045858 0.0687784 -0.113806404 0.031866968
0001c0 2d 27 fd 3d ab 72 0d 3c f5 9c 0c 3c 41 fb b8 3d
       0.12360988 0.008633296 0.008582343 0.09032298
0001d0 1a c0 79 3e 27 a3 9e bd ec f7 2d be 46 83 0c bd
       0.24389687 -0.077459626 -0.16989106 -0.03430488
0001e0 44 15 29 bd ce 29 1e bc 9b 13 53 bd 19 fd 95 3d
       -0.041280046 -0.009653522 -0.05153237 0.07323665
0001f0 db 5d ba 3c 67 fc 3a be 5f e3 57 be 17 84 0e bd
       0.022749832 -0.18260346 -0.21082829 -0.03479394
000200 9e 82 02 be 47 8c d0 3d d5 65 34 bd 5e 98 0b 3c
       -0.12745139 0.10183006 -0.044042427 0.008520214
000210 04 ca 90 3d cf c8 84 3d 33 91 e0 3d 88 19 eb bd
       0.070697814 0.06483614 0.109651946 -0.11479479
000220 a0 1b d3 3d 98 06 2f be e3 57 87 3c 7f cd a0 bd
       0.103080034 -0.17092359 0.0165214 -0.07851695
000230 9f 95 81 3c cb 40 29 3e 4b ee 8e bc f7 a9 24 bd
       0.015818415 0.16528623 -0.017447611 -0.040201154
000240 45 b1 ad bc bd a9 53 bd ed 6b 73 bc f0 5c c0 bd
       -0.021202693 -0.051675547 -0.0148572745 -0.093927264
000250 ad ea 67 3d ef 5e 20 bd 5a 5e 83 be d9 ca 15 be
       0.05662029 -0.039153036 -0.25657922 -0.14628161
000260 c1 20 08 be 4c ce 84 bd d4 e1 19 3d 73 83 37 3d
       -0.13293745 -0.064846605 0.037568882 0.044803094
000270 a7 ad 05 3e 06 8e a0 3d 68 5c 07 3d 08 e8 ad 3b
       0.13054524 0.07839589 0.03304711 0.0053072013
000280 a4 08 13 3c c8 3f 79 3e b7 42 4b be fa 20 b8 bc
       0.008974228 0.24340737 -0.19849668 -0.022476662
000290 30 4c 0b 3d 4f 79 12 bc d3 39 3d 3c 68 35 c6 bd
       0.034008205 -0.008940055 0.011549431 -0.09678155
0002a0 22 44 6e 3c 63 9d 19 be 6a 8e 5e 3e 9e 79 b9 3d
       0.014542611 -0.15001445 0.21734014 0.090564
0002b0 d1 47 2b bd 9d d6 81 bd 8d fe aa 3d f7 8a 50 3e
       -0.041816536 -0.06339762 0.08349333 0.20365511
0002c0 ab 31 ba 3d 02 23 09 3d ce 4c 18 be 39 f4 9e bd
       0.09091505 0.03348065 -0.14873049 -0.077614255
0002d0 a0 5d 4e 3c bd b8 6b 3d fd eb 55 3c 51 b0 a4 bd
       0.012595564 0.057549227 0.013056752 -0.08041442
0002e0 d8 08 c0 bd 32 f0 2b 3e 68 b6 8a bd cf 17 f7 3d
       -0.09376687 0.16790846 -0.067730725 0.12065088
0002f0 22 1c ec bd 1a d8 ef 3c 58 94 44 bb ea 16 89 bd
       -0.115288034 0.02927785 -0.0029995646 -0.06693824
000300 ba 18 9a bd dc 25 ac bd 39 66 2a be 98 39 bc 3d
       -0.075242475 -0.084056586 -0.16640557 0.09190673
000310 98 6e 9f bd c5 6a ae bd b4 73 b6 bd 1d ec e7 3c
       -0.07784766 -0.085164584 -0.08908787 0.02831083
000320 83 aa ae bc 8f 4b 7a 3d b2 e5 75 bd 67 78 c9 3b
       -0.02132154 0.061107215 -0.060033508 0.0061483863
000330 c2 83 61 3d 4b c3 ae bd f0 07 47 3d a0 c5 30 bc
       0.055057295 -0.08533343 0.048591554 -0.010789305
000340 4a 3e 68 bb be 79 a6 3d 74 ad 96 3b 53 d4 03 3d
       -0.0035437518 0.08128689 0.004598314 0.03218491
000350 5f f7 36 3d 87 7e 11 be 8a 5d 79 ba 98 3c fa bd
       0.044669505 -0.14208423 -0.00095125346 -0.122185886
000360 10 76 5d 3d ee 18 1f be cb c4 ec 3b 38 9e 67 3c
       0.05406767 -0.15536854 0.007225608 0.014136843
000370 c2 d4 f1 3d c5 55 52 3d b0 d6 e0 bc 7d 3f 37 3e
       0.118081585 0.051351327 -0.027446121 0.17895313
000380 b8 2b 11 bd 42 12 54 bc 6e c3 20 3d b8 dc 0d be
       -0.035442084 -0.012943806 0.039248876 -0.13853729
000390 7e 34 15 be 43 5c 93 3d dd dc 28 be fe 09 bc 3d
       -0.14570805 0.07195332 -0.16490503 0.09181593
0003a0 1a ec 88 3d 53 e1 84 3d 1d 2c 23 3e 08 43 54 bd
       0.06685658 0.0648829 0.15934797 -0.05182174
0003b0 51 31 a0 3d 3b 5f 2f 3d 23 a0 c3 bd 95 ac dc 3a
       0.07821906 0.04281543 -0.09552028 0.0016836101
0003c0 0f dd d0 bb 01 94 aa 3d 3f 1f 06 be 95 0c a1 3d
       -0.0063740085 0.08329011 -0.13097857 0.07863728
0003d0 52 ff 01 3d 36 22 ac bc 61 5d b3 3d 7c b1 be 3d
       0.031737633 -0.021012407 0.08758045 0.09311196
0003e0 76 5d a9 bd 85 cb 66 3d 7f b6 a3 3d 89 2d b0 3c
       -0.082697794 0.056346435 0.07993793 0.021506088
0003f0 77 d8 28 be 8b 39 28 3e 77 e0 81 bb 60 d0 6e 3c
       -0.16488825 0.16428201 -0.003963526 0.014576048

fc3.bias f4 [128]
000000 aa 1d b0 3e 98 18 04 3e 22 86 dd 3e aa 6d e5 3e
       0.34397632 0.12900007 0.43266398 0.4481023
000010 58 f9 b1 3e 38 b3 c9 be 16 f3 a2 3e f0 dc 8c 3d
       0.34760547 -0.39394546 0.31826085 0.06878078
000020 78 27 f9 3e 76 94 fb be c6 73 f6 be 9e 01 8d 3e
       0.48662925 -0.49136704 -0.48135203 0.27540296
000030 d8 71 c3 bd 72 3b b8 3e a8 23 15 be 38 b4 2f be
       -0.09543198 0.35982853 -0.14564383 -0.17158592
000040 80 2a 24 3e 32 e0 fa 3e 76 12 e6 3e 34 ff b6 be
       0.16031837 0.48999172 0.4493596 -0.3574158
000050 18 6b 8f be 20 8d cb 3c 10 4b fc 3d f0 1d 05 be
       -0.28011394 0.024847567 0.123190045 -0.12999701
000060 74 95 2d be 60 28 3d bd c2 e0 eb be cc f7 db 3e
       -0.16951543 -0.046181083 -0.46069914 0.42962492
000070 68 0f 39 3e 7c fd 9a 3e bc fe 89 be 88 61 52 be
       0.18072283 0.30271518 -0.2695216 -0.20545018
000080 e0 d5 fd be 90 f3 24 3e 20 a0 a6 3c 34 84 78 3e
       -0.49577236 0.16108537 0.020340025 0.24269181
000090 08 27 5c 3e 0a a4 fa be 96 b3 dc be 00 40 9c bd
       0.21499264 -0.48953277 -0.43105763 -0.076293945
0000a0 e0 08 e4 bc 40 31 cd be b0 a5 27 bd f0 02 67 bd
       -0.027836263 -0.40076637 -0.040929496 -0.056399286
0000b0 aa 19 dd be e4 7a 99 3e 88 ee e5 3e 34 59 03 3e
       -0.43183643 0.2997657 0.44908547 0.12826997
0000c0 3a c4 ef 3e 78 f8 3b be 56 d6 ff 3e 94 21 8a be
       0.46829396 -0.18356502 0.49968213 -0.26978743
0000d0 c8 71 c0 3e 44 36 69 3e 88 1e 5f be 80 16 96 bd
       0.37586808 0.22774607 -0.2178899 -0.0732851
0000e0 a0 94 d3 bd cc 84 0f be c4 ff 52 3e 8e ca 9b 3e
       -0.10331082 -0.14015502 0.2060538 0.30427974
0000f0 9c 4b 32 be 8c d5 23 be ac d5 49 3e 36 da 83 3e
       -0.17411655 -0.1599943 0.19710416 0.2575242
000100 b0 18 a3 bd 24 9d e5 be ea f9 d0 3e 94 e9 72 3e
       -0.07963693 -0.4484645 0.4081567 0.23721915
000110 00 de 1a 3b b2 1f b0 3e 30 f0 c5 be 1c 8d 96 3e
       0.0023630857 0.34399182 -0.3865981 0.29404533
000120 64 4e a2 be e0 d1 cc bd 5e 97 bd be 2e 34 82 3e
       -0.31700432 -0.10000968 -0.37029546 0.25430435
000130 8a e3 9b be c0 dd a4 3e 80 ef b4 bd c2 73 c4 3e
       -0.30447036 0.32200432 -0.088347435 0.38369566
000140 fe 64 fb be 06 94 e6 be 40 34 58 bc e0 89 f2 3e
       -0.49100488 -0.45034808 -0.013196051 0.47370815
000150 3c d2 96 3e 1c 56 91 3e 80 52 f2 3b f4 26 b4 be
       0.2945727 0.2838601 0.0073950887 -0.3518597
000160 28 80 ee bd ac 6e 7d be f0 b2 3d 3e 68 54 e9 3d
       -0.116455376 -0.24749249 0.1852529 0.11393052
000170 a0 e0 5b bd f0 eb de 3d 80 f7 ab bc 74 d9 6f be
       -0.053681016 0.10884845 -0.02099204 -0.23422796
000180 50 75 66 3e 08 d1 71 3e 6c b7 95 3e b4 51 1f be
       0.22505689 0.23614895 0.29241502 -0.15558511
000190 28 c9 c9 be cc 2c 63 be 66 7d c3 be 04 4b d1 be
       -0.39411283 -0.22185057 -0.3818161 -0.40877545
0001a0 3c cd 23 be 52 bd 9b 3e 2a 38 b3 3e 90 f0 5b bd
       -0.1599626 0.30417877 0.35003787 -0.053696215
0001b0 ec d9 03 be 70 c8 33 3d 7c df a6 3e b8 32 bb 3e
       -0.128761 0.043892324 0.3259238 0.36562133
0001c0 e4 40 c7 be 34 7c 4c be 40 9d a0 bc b6 51 88 3e
       -0.38916695 -0.19969255 -0.019606233 0.2662484
0001d0 0a 8f ba be 50 6f 2b 3e e0 3a b1 bd bc 62 66 be
       -0.36437255 0.16741681 -0.08653808 -0.22498602
0001e0 ee ec e2 be 98 65 20 3e 50 fa 38 bd 88 f7 b5 bd
       -0.44321388 0.15663755 -0.04516059 -0.088851035
0001f0 c0 ae 11 3d cc 2d 7b be 90 68 dc be 98 29 0b 3e
       0.035567045 -0.24529189 -0.43048525 0.13590086

out3.weight f4 [1, 128]
000000 e1 a2 12 3e d7 e7 8f 3e f5 c1 e2 bd 00 57 4f 3d
       0.14319946 0.28106567 -0.110721506 0.05062008
000010 30 3b 66 bd d7 15 d5 3b cb fd a7 bb e0 39 43 bd
       -0.05620879 0.0065028477 -0.00512669 -0.047662616
000020 a3 1e 5a bd 72 2f 35 3d 0f 11 22 bd a8 89 c0 3c
       -0.053251874 0.0442347 -0.03956705 0.02350314
000030 15 bc bc 3d 8b 77 28 be 5f e7 03 be b1 eb ab 3d
       0.09215561 -0.16451852 -0.1288123 0.08394564
000040 44 52 c7 3d 97 4b ec 3d fd 00 af 3d b0 98 6f 3e
       0.09732488 0.11537855 0.085451104 0.2339809
000050 bf 3d f8 bd 4f 93 69 be 2a c3 23 be b1 f5 01 be
       -0.12121152 -0.228101 -0.15992418 -0.1269138
000060 0c d1 82 3e 22 70 93 bd 7d 47 9e bd b5 cd da bd
       0.25550115 -0.07199122 -0.07728479 -0.10683767
000070 5a a0 b9 bd 40 bd ce bc 23 c3 57 3b fe e1 82 bd
       -0.09063788 -0.025236726 0.0032922707 -0.06390761
000080 2d 74 d9 bd f2 b1 7e be a2 3e 9d 3d fb 75 ad 3d
       -0.10617862 -0.24872568 0.07677962 0.084697686
000090 33 fe 24 3d 9f bb 9d bd 97 41 00 be a2 c0 1b be
       0.040281486 -0.077018015 -0.1252502 -0.15210202
0000a0 0e 57 bc bd 32 76 06 3d 6b 48 3d 3b b7 09 ff bc
       -0.09196292 0.032827564 0.0028882276 -0.031132562
0000b0 98 79 0f bd b6 f8 c0 bc dc 53 2c 3d f8 73 b6 bd
       -0.03502807 -0.023556095 0.042072162 -0.08908838
0000c0 90 84 6a 3e 0a ef 05 3e 9d 78 4d bd c8 4f e4 3d
       0.22902131 0.13079467 -0.050163854 0.111480296
0000d0 28 08 d9 bb 85 33 5b bd ee 48 8c 3d 75 b5 f8 3d
       -0.0066232868 -0.05351593 0.06849848 0.12143985
0000e0 6e 3d 12 3e 18 40 4d bd 43 94 c0 bb e7 3d 84 bd
       0.14281246 -0.050109953 -0.005877049 -0.064571194
0000f0 db da 35 3d f6 92 ad bd de eb ac 3d c1 85 a3 bd
       0.04439817 -0.08475296 0.084434256 -0.07984496
000100 0e 5a 8c bd e9 cd 80 bd e3 98 96 be 4a 7c 6f bd
       -0.06853114 -0.06289274 -0.29413518 -0.05846814
000110 8f ee 0e 3e 4d b6 f4 3d bb 99 9f bc 18 33 fe bd
       0.1395819 0.119488336 -0.019482484 -0.12412089
000120 12 57 95 3d e4 7d 21 3d 03 48 a1 3c f8 cd fe 3d
       0.07291998 0.0394267 0.019687658 0.12441629
000130 f7 96 5d bd 41 ea 1f 3c 83 64 18 3c 6a 02 d2 bd
       -0.05409905 0.00976044 0.009301308 -0.10254367
000140 04 96 2d 3e cf f8 21 bd e7 08 98 bd 60 0d d2 bd
       0.16951758 -0.039543923 -0.07423573 -0.10256457
000150 13 7a d6 bd d6 10 41 3e 1f 5b 9b bd f4 a0 9e bd
       -0.104725026 0.18854079 -0.07585739 -0.07745543
000160 80 f8 81 bd 95 66 ec 3d 96 ad 8d bd cd 62 d8 3c
       -0.06346226 0.115430035 -0.069178745 0.0264143
000170 6d ed 5b bd 70 87 44 bc de c3 35 be a9 4a a2 3d
       -0.053693224 -0.011995181 -0.17750499 0.079243965
000180 7b 3b 3c 3d a1 e4 b2 bc 9e 40 25 3d ea 6b 2e 3d
       0.045955162 -0.021837534 0.040344827 0.042583384
000190 ed c9 d0 3c 28 e5 0c 3c 7b 8c b0 bd d7 d5 4e 3c
       0.02548691 0.008599557 -0.086205445 0.012624226
0001a0 fd 92 22 3c e6 3e 0c bd b0 0e ff 3c f2 44 95 bd
       0.00992274 -0.034239672 0.031134933 -0.07288541
0001b0 f1 3e 84 bd 7b c8 0c 3c 5f 80 da bd 74 97 16 3e
       -0.064573176 0.00859272 -0.10669016 0.14706212
0001c0 7a 16 89 bc 47 25 94 bd ba 8f 0d 3e d0 26 25 3d
       -0.01673435 -0.072336726 0.13824359 0.040320218
0001d0 a7 23 99 3d d7 04 3a bd f2 66 84 bd 82 59 f0 3d
       0.07477503 -0.045414772 -0.06464948 0.11735822
0001e0 9d b1 84 3d 11 40 9e 3d c7 fd 98 bd 9a 80 68 bc
       0.064791895 0.077270634 -0.07470279 -0.014190817
0001f0 57 e6 8a bd b5 43 e1 3b f2 fd 78 be 40 93 57 3e
       -0.06782215 0.0068745264 -0.24315622 0.21052265
